models/binary_rice_classfication_ai_model.pth (torch, 9067 bytes, 3 tensors)

input_layer.weight f4 [128, 10]
000000 3c 3a 3a 3f ad d0 85 be 2a 81 bf 3e 18 7f 9c bd
       0.7274511 -0.2613577 0.37403232 -0.07641429
000010 d7 29 15 3f 47 c2 e8 3e 91 23 6c be f3 49 b7 3c
       0.5826697 0.45460722 -0.23060443 0.022374129
000020 3b 42 25 3e c5 a1 73 bf a9 e4 89 3e 80 00 35 bd
       0.16138546 -0.95168716 0.26932266 -0.04418993
000030 30 4f 54 3d b4 d1 d0 3d f0 e9 b3 bd 1c 28 35 3e
       0.05183333 0.10196248 -0.087848544 0.17691082
000040 1e b8 99 be d6 b4 74 be c1 e6 54 be 24 66 d4 bd
       -0.30023283 -0.23897108 -0.2079115 -0.10371044
000050 7c 39 37 3f b2 dc 12 bf 41 f3 9c 3e b6 51 be be
       0.7157209 -0.57368004 0.30654338 -0.37171715
000060 c9 33 32 3f 3a 75 88 3e ad 85 bc 3d 03 95 68 bc
       0.6961027 0.26651937 0.09205184 -0.014195683
000070 33 89 06 3f c9 da 45 bf 0b f8 35 be 7f 8d 34 3e
       0.525531 -0.77286965 -0.17770402 0.17632101
000080 d9 cc 05 bf d6 a9 61 3e 9c 8c da be ce 7c 08 3d
       -0.522657 0.22037444 -0.426854 0.033322148
000090 ca a5 87 be 2e 82 b9 3e 47 23 1f bf a6 52 68 3f
       -0.26493675 0.36232132 -0.62163204 0.9075111
0000a0 49 fc b2 3e d3 be 44 be 8d 6f ad 3e 19 f3 b4 be
       0.34958103 -0.19213419 0.3387417 -0.3534172
0000b0 05 67 33 3f 5d e1 c7 3e f5 93 48 3e 3c 9a 4c be
       0.7007907 0.39039126 0.19587691 -0.1998071
0000c0 d5 19 10 3f b2 eb 42 bf c8 cd 02 3d 8e 44 4a 3e
       0.56289417 -0.7614089 0.03193453 0.19752714
0000d0 2c dd 96 bd 40 b6 dc 3c b2 ff 37 3e 1a 0d 67 3e
       -0.07366404 0.026942372 0.17968634 0.22563592
0000e0 46 07 88 be f0 bb 4c bd f8 d3 32 bd e6 ea 96 be
       -0.2656805 -0.04998392 -0.04365918 -0.29476088
0000f0 39 0b 0b bf 23 4f d0 3e 6b 08 05 bf 52 03 ff 3e
       -0.54314 0.40685377 -0.5196597 0.4980722
000100 23 aa d2 bc a4 48 4e be 18 7e 7c be da 6e b3 bd
       -0.025715893 -0.20144898 -0.24657476 -0.08761378
000110 a4 8d 01 bf 35 e3 89 3f 9e 74 26 3e 4b c4 d9 be
       -0.5060675 1.0772463 0.16255423 -0.42532572
000120 ee fe f2 3e cc c8 46 bd dd f0 0f 3f 41 84 cb 3e
       0.4746012 -0.04853134 0.56226903 0.3974934
000130 79 c9 a0 3e 99 23 5f be 4e 8e 05 3f f1 80 5e bf
       0.3140371 -0.21790923 0.52170265 -0.869155
000140 04 e3 9b 3e 55 11 b6 bb 94 ac f1 3e 0a fd ed be
       0.30446637 -0.0055562654 0.4720198 -0.46482116
000150 f5 94 fb 3e 9f d0 ed bd ec 56 15 3e 5e e9 01 3d
       0.49137083 -0.11612057 0.1458394 0.031716697
000160 93 30 c7 3e 98 19 08 bf c2 81 26 3f 37 1c 76 3c
       0.38904247 -0.5316405 0.65041745 0.015021375
000170 b0 71 39 3f 93 2a 13 bf a1 fc c4 3e ac c7 ba 3c
       0.724391 -0.5748684 0.3847399 0.02280029
000180 3c 97 84 be 02 fc 6d be 7a 54 e3 3e fa ff 10 bf
       -0.25896633 -0.23240665 0.44400388 -0.5664059
000190 c6 73 2a bf 05 47 9a 3e 32 b3 99 be 50 82 0d 3f
       -0.66582906 0.3013231 -0.30019528 0.55276966
0001a0 44 36 17 bf f0 57 ae be f5 38 64 3d b7 a9 86 3e
       -0.5906718 -0.34051466 0.05571838 0.26301357
0001b0 07 4f 5c be 09 41 63 3f 98 bd 80 3d 32 8d 5e be
       -0.21514522 0.8877111 0.06286162 -0.21733549
0001c0 ba 9e 3b be 8b 34 36 be 16 33 63 3e 80 85 fa bc
       -0.18322268 -0.17793481 0.22187456 -0.030581236
0001d0 69 b0 9f be 3c ce 47 be 58 13 28 3e 6e 94 c1 bd
       -0.31189278 -0.19512266 0.16413629 -0.09452139
0001e0 ce 29 3e bf d7 32 c0 3e 52 60 92 be 99 f9 54 3e
       -0.7428254 0.37538788 -0.28589112 0.20798339
0001f0 6f 22 f2 be 45 4e 97 be 6d 93 1c 3e d3 de e8 3e
       -0.47291896 -0.29551902 0.15290613 0.454825
000200 78 c5 bc be df 10 5d 3f 76 40 01 be 3c b7 9b 3c
       -0.36869407 0.8635387 -0.12622246 0.019008271
000210 2c 8b 47 3e a1 18 54 3d 5b 54 9a be b3 c2 c5 be
       0.19486684 0.0517813 -0.30142483 -0.38625106
000220 04 47 02 3e 68 2f 21 3d 7e 19 c3 3e 7e d7 c9 be
       0.12722403 0.03935185 0.38105386 -0.3942222
000230 2c 05 89 3e 7f 78 b5 be b4 ae 2c 3f 61 0c 03 bf
       0.26761758 -0.35443494 0.67454076 -0.51190764
000240 f0 96 f1 3e 47 c4 50 3e b1 40 e3 3d 1f f6 35 3e
       0.4718547 0.20387374 0.11096323 0.17769669
000250 4a 18 c8 3e 38 01 55 bf d6 94 1b 3e 8a c7 41 be
       0.3908103 -0.83204985 0.15193495 -0.18923774
000260 60 c5 26 3c d9 1c 95 be c2 88 09 be 68 4e 7d be
       0.010178894 -0.29123572 -0.13431075 -0.24736941
000270 31 0d 8f be 64 4d 58 be 70 c0 94 3c a4 c7 c8 bd
       -0.27939752 -0.21123272 0.018158168 -0.098037034
000280 89 be 35 bf 42 c9 1e bf 65 4c cb bd af de 9b bd
       -0.7099386 -0.62025845 -0.099266805 -0.07610833
000290 9b f4 da be a0 c3 2a be b2 ef b2 3e fb 72 20 be
       -0.42764744 -0.16676188 0.34948498 -0.15668862
0002a0 12 ad 3c 3f b8 ba 17 be 44 41 b5 bd f1 12 17 be
       0.73701584 -0.14817321 -0.08850339 -0.1475332
0002b0 60 58 c0 3c df 41 83 3e cd 8c 84 be 34 bf c6 3d
       0.02347964 0.25636193 -0.25888672 0.09704438
0002c0 33 6c 87 3e da bb 23 be 16 4f a3 bd 90 40 eb 3c
       0.26449737 -0.15989628 -0.07974069 0.02871731
0002d0 55 a6 cf 3e 32 e2 d8 be d4 c0 1d 3f 52 f7 43 be
       0.4055659 -0.42360073 0.6162236 -0.19137314
0002e0 95 de 20 3f 65 cb 8c 3e f5 01 fd 3b 00 6b b9 be
       0.62839633 0.27498928 0.0077211806 -0.36214447
0002f0 2d 45 1e 3f 58 19 49 bf 9e 19 83 be c7 f4 f0 3e
       0.61824304 -0.78554296 -0.25605482 0.4706175
000300 92 fa 97 be f3 11 f7 3e f2 40 9a be 0f 1c c8 be
       -0.29683357 0.48255882 -0.30127674 -0.39083907
000310 e7 d3 0d bd 36 3e 3d 3d 31 f6 10 be cc 77 72 3f
       -0.034625914 0.046201907 -0.14156415 0.94714046
000320 77 a1 29 3f 6c d8 bb be 40 cf a3 3e 88 7d 54 be
       0.66262 -0.36688554 0.31994057 -0.20751011
000330 54 fc ab 3e a1 05 c4 3e 59 db f7 3d fc 4c 73 bd
       0.3359095 0.38285545 0.12102384 -0.05939959
000340 69 98 2f 3e f1 37 84 bf f9 70 a6 be 6f 4d fb 3e
       0.17147984 -1.0329572 -0.32508066 0.49082515
000350 6e 57 f4 be 96 b8 d8 3d f5 fc 4b 3d 67 06 94 be
       -0.47722954 0.10582082 0.049801785 -0.28911135
000360 6d a5 d9 be f9 00 e9 3e 28 a2 67 bf e7 22 91 3f
       -0.42509022 0.45508555 -0.90481806 1.1338776
000370 90 96 4b be 68 20 1c 3e 42 c4 9d be 00 96 aa 3c
       -0.19881654 0.15246737 -0.30813795 0.020823479
000380 bf d3 82 be c0 af 97 bc 34 9b 1a 3e 4b ec 9d 3e
       -0.25552174 -0.018516421 0.15098268 0.3084434
000390 ec 12 89 be 00 35 04 3e 16 64 bf be 5a 41 17 3e
       -0.2677225 0.12910843 -0.37381047 0.14771023
0003a0 31 65 30 bf 66 23 60 bb f4 af 3a be aa 8e f8 3d
       -0.68904406 -0.0034200787 -0.18231183 0.12136586
0003b0 b8 24 b0 3a ef 94 9b bd 64 ea 4f be 7d 9c 6a 3f
       0.0013438677 -0.07596766 -0.20304257 0.9164503
0003c0 36 4a 2a 3e 5c 30 6e be 6f f2 89 3e d8 1d 63 be
       0.16629872 -0.23260635 0.26942775 -0.22179353
0003d0 18 25 43 3d 40 09 80 3c d8 4c 54 bd 92 5e 6f 3e
       0.047642797 0.01562941 -0.051831096 0.2337592
0003e0 f8 33 4b 3d 59 22 86 be 00 f5 3b bc 1a 5e 49 3e
       0.049610108 -0.2619808 -0.011471987 0.19664803
0003f0 a0 ae 78 be a6 6c 68 3e 32 63 94 be 9a 36 61 3e
       -0.24285364 0.22697696 -0.2898193 0.21993485

input_layer.bias f4 [128]
000000 8e 13 91 be e6 9a 08 be e4 a0 01 be 60 a9 9b 3e
       -0.28335232 -0.13340339 -0.12659031 0.3040266
000010 cc 3c fa be 00 fe 6d be 3a d7 df 3d 01 38 7e be
       -0.4887451 -0.23241425 0.10929723 -0.24826051
000020 0c 89 c2 bd a9 c2 e2 bd 26 03 be 3e 92 17 3e be
       -0.09498796 -0.11072285 0.37111777 -0.18563679
000030 04 b6 95 3e 19 79 fd 3d c2 f5 df bd ee a7 60 3e
       0.2924043 0.12376613 -0.109355465 0.2193906
000040 01 1b 31 3f 49 f4 87 be d4 c6 9f be 12 06 52 bc
       0.6918183 -0.26553562 -0.3120638 -0.01281883
000050 34 90 2e bc 26 fa b7 3e 6e d7 56 be 12 e0 e2 3e
       -0.010654498 0.35933036 -0.20980617 0.44311577
000060 c8 18 8e be 70 60 91 be 3e 47 ca bd 57 ca 84 be
       -0.27753282 -0.28393888 -0.098768696 -0.25935623
000070 b7 f8 8f bd bb 68 4c be d0 54 02 3e f2 8d 67 3e
       -0.070298605 -0.19961827 0.12727666 0.22612742
000080 44 4d 0a be ee 87 cb 3e c0 38 e9 3e 0b 7b 3b be
       -0.13506037 0.39752144 0.4555111 -0.18308656
000090 29 6e 34 be a5 d4 db 3e e0 9b 9f be 92 99 bb bd
       -0.17620148 0.42935672 -0.3117361 -0.091601506
0000a0 e5 b4 91 be 30 b4 32 bd bd d3 c9 bd c8 50 74 3d
       -0.28458324 -0.04362887 -0.09854839 0.05964735
0000b0 a8 c3 5a 3d 3d f9 a9 be bb 88 55 3d d8 48 10 3e
       0.05340925 -0.33197966 0.05213235 0.14090288
0000c0 96 be 2a 3e 6b b6 84 be 14 e2 b9 3e fc b0 ed 3d
       0.16674265 -0.25920424 0.36305296 0.11606023
0000d0 88 5b cd bc 60 14 84 3e fc 8c 05 3e c5 92 bd 3e
       -0.02506806 0.25796795 0.13042063 0.3702604
0000e0 62 67 18 be 3f 27 dc be 1d 38 58 be e2 cd 5a 3e
       -0.14883187 -0.42998692 -0.21115156 0.213676
0000f0 d4 62 d6 be 47 07 be 3e 70 f8 03 bd 42 4d 89 be
       -0.41872275 0.37114927 -0.03221935 -0.26816756
000100 42 da 69 3e 95 f0 e0 3d 92 75 89 be c3 bf 29 3e
       0.22837165 0.109833874 -0.26847512 0.16577058
000110 e1 f8 8e be 1a e3 29 be b8 11 0a 3d 83 a5 d7 3e
       -0.27924255 -0.16590539 0.033708304 0.42118463
000120 89 17 9e 3e b0 79 ae 3d d0 38 45 be 48 b4 1e 3e
       0.3087733 0.08519304 -0.19259953 0.1549846
000130 80 8e 30 bb a8 c9 5b bd 6b 99 87 3b ed ae 62 3e
       -0.0026940405 -0.05365911 0.004138162 0.22137041
000140 f2 7d 8b be 1c 24 87 3d 42 74 3b be 69 3f 97 3d
       -0.27244526 0.06598684 -0.18306068 0.073851414
000150 9b ed 6c 3e 74 0f b0 3d e8 50 cf 3e 7d fd ee ba
       0.23137514 0.085966974 0.40491414 -0.0018233504
000160 9e cf 78 be 3a 95 05 be 2b ba 7b be 92 97 5f be
       -0.2429795 -0.13045207 -0.24582736 -0.21835163
000170 1c 90 af 3e a8 c1 50 bc 53 07 8e be 22 3e bd 3e
       0.34289634 -0.012741484 -0.27739963 0.36961466
000180 cb e6 88 3e 9d 0e c4 3d cd c4 04 3f 1e 7b 90 be
       0.2673858 0.095731 0.51862794 -0.2821893
000190 40 91 c6 3d 5d bc e9 bd 28 da 57 3d 2b 06 72 be
       0.09695673 -0.114128806 0.052698284 -0.23635165
0001a0 1b 0b ec 3d a0 c9 10 bd ad 29 28 be 65 2e 7a be
       0.11525556 -0.035348535 -0.16422148 -0.2443176
0001b0 70 1b 34 3e a0 31 4a be 79 39 a2 be b0 3a d2 3d
       0.17588592 -0.19745493 -0.31684473 0.102651
0001c0 12 92 c7 bd 62 10 b6 be a0 b1 ca bc 9e 95 4e be
       -0.097446576 -0.35559374 -0.024742901 -0.20174262
0001d0 8a 6b 74 3e 68 ee 88 be 8d fc 33 bd a0 3b 50 bc
       0.23869148 -0.2674439 -0.043942023 -0.012709528
0001e0 c2 84 2c 3e 4a 63 83 bd a8 9b 05 3f f1 38 c7 3e
       0.16847518 -0.06415422 0.5219064 0.3891063
0001f0 7d 57 9e be e0 ff 00 bd 18 f0 ad be 58 c8 8e 3e
       -0.30926123 -0.03149402 -0.3397224 0.27887225

output_layer.weight f4 [1, 128]
000000 f1 2f 8c bf 4c 2c 9c bc 14 81 58 bf b2 f2 1f 40
       -1.095213 -0.019064091 -0.8457196 2.499188
000010 8e 03 ba bf f2 45 ff bc 30 23 e8 3f 21 de 49 bf
       -1.4532335 -0.031161282 1.8135738 -0.78854567
000020 c8 5e 0a bf 99 d8 89 bf c8 39 57 3f 00 ee 12 3c
       -0.54050875 -1.0769225 0.8407254 0.008967876
000030 4c 24 b3 3f 96 6b 0a 3f 97 ef 99 bf 66 3f eb bc
       1.3995452 0.54070413 -1.2026242 -0.028716754
000040 e1 9a 93 40 09 77 ab 3d a4 7d b2 bf 14 8d 22 3f
       4.612656 0.083723135 -1.3944592 0.6349652
000050 8a 1e a9 bf 92 ab 4d 40 32 40 2e 3d df a9 86 3f
       -1.3212445 3.2135968 0.04254169 1.052059
000060 64 d7 9a bc 88 80 77 bd f0 18 16 bc 1f 64 94 3d
       -0.018901534 -0.06042531 -0.009161219 0.07245659
000070 06 53 b5 3c ee ab 86 bf 2a f3 52 3d 86 95 40 3d
       0.022134315 -1.0521219 0.05150143 0.047017597
000080 35 3e 9b bd 3f ac 55 3f 24 ce 46 3f 40 78 12 3c
       -0.075802244 0.8346595 0.77658296 0.008939803
000090 f5 c9 97 bd 45 49 a9 3f 3e 1a 0f bd 6d c8 0e bd
       -0.07411567 1.3225485 -0.034937136 -0.03485911
0000a0 60 3e f1 bc ac 80 0d 3d ae ca 88 bf 06 f0 92 bd
       -0.029448688 0.03454654 -1.0686853 -0.07174687
0000b0 52 ee 1f 3d 41 51 9c bf 7b 83 e8 be 59 23 07 40
       0.03904564 -1.2212297 -0.45412812 2.1115324
0000c0 6a 61 89 3f 2a 5f 6c 3d 6b be 88 3f 3f 9d 81 bd
       1.0732853 0.057707943 1.0683111 -0.063288204
0000d0 23 ef 0e bd 9b 01 aa 3f f0 ce 8f bd b0 65 95 3f
       -0.034896027 1.328174 -0.07021892 1.1671658
0000e0 28 f5 7d bc ad 09 18 bf dc b3 a5 bd 9e 65 23 bd
       -0.015500344 -0.59389764 -0.08090946 -0.03989183
0000f0 67 07 b4 bf 04 5e 79 3f 11 8a 95 3d 72 c9 a6 bd
       -1.4064759 0.9740908 0.07301725 -0.081438914
000100 2d 09 32 bd e2 38 2e bd d1 24 11 bd 73 c8 9a 3f
       -0.043465782 -0.042534716 -0.0354355 1.2092422
000110 64 c5 a1 bf 9f 76 92 3d df 39 a5 3d f4 93 e5 3e
       -1.2638364 0.071515314 0.08067679 0.44839442
000120 fe 9e a6 3f c5 10 95 3f bd 26 b1 bf fc 3a b8 3f
       1.301727 1.1645743 -1.3839947 1.4393001
000130 7c eb ce 3c 9f f1 b4 3d cf 41 13 40 0e 0e a4 3f
       0.025258772 0.08835148 2.3008916 1.2816789
000140 92 7c 16 bd c4 c9 95 3f 2b f5 a1 bf 8b ee 9b be
       -0.036739893 1.1702199 -1.2652944 -0.3045543
000150 ae b3 f9 3e c5 fa 75 bf 7a d7 b5 3f 89 59 8b bf
       0.48769897 -0.9608577 1.4206383 -1.0886699
000160 4c 0e 8c bf 81 d9 b2 3d 2f d9 81 bf 05 02 8b bf
       -1.0941863 0.08732892 -1.0144404 -1.0859991
000170 b9 70 bc 3f f5 6c d8 be 5f 93 9a be 6b 25 98 3f
       1.47219 -0.42270628 -0.3019056 1.1886419
000180 9d 6b b4 3d 52 fe e7 be 8d 3a 89 40 f8 e5 01 bf
       0.08809588 -0.45311219 4.2883973 -0.5074153
000190 96 e5 4d bd 0e 2b 7b bb 70 fe c7 3c 9e 60 87 be
       -0.05026778 -0.0038325223 0.024413317 -0.264409
0001a0 bb 9b a3 bf ec 97 ef be 90 2c 8a bb 06 16 93 bf
       -1.27819 -0.46795595 -0.004216738 -1.1491096
0001b0 52 da 69 3d e4 ca 93 bf e4 86 b2 bf e0 bf 92 bd
       0.057092972 -1.1546292 -1.3947415 -0.071655035
0001c0 89 cd 81 3d 21 09 7b bf d0 bd ac bb ee 07 68 bd
       0.06338031 -0.98060805 -0.005271651 -0.056648187
0001d0 7d 80 99 3f dd 6d 59 bf 99 77 85 3f f8 8b 82 3c
       1.1992337 -0.84933263 1.0427123 0.015935883
0001e0 a0 1d 60 bc cd 17 23 bf 99 5f aa 3f 43 b4 8a 40
       -0.013678938 -0.6370819 1.3310424 4.3345046
0001f0 e0 c4 6a 3b 7c 2e 89 3c 52 ef 2d bf c7 98 a3 3f
       0.0035822913 0.016745798 -0.679433 1.2780999
